…
2023-11-19 18:35:23,916 - Found 1 CUDA devices.
2023-11-19 18:35:23,918 - NVIDIA GeForce RTX 2080 Ti 	 Memory: 10.75GB
2023-11-19 18:35:41,791 - 950 training examples, 51 val examples, 50 test examples
2023-11-19 18:35:42,550 - DistributedDataParallel(
  (module): SelfAttentiveCNFSpatiotemporalModel(
    (temporal_model): NeuralPointProcess(
      (hidden_state_dynamics): HiddenStateODEFuncList(
        (odefuncs): ModuleList(
          (0): GRUHiddenStateODEFunc(
            (dstate_net): SequentialDiffEq(
              (layers): ModuleList(
                (0): ConcatLinear_v2(
                  (_layer): Linear(in_features=32, out_features=32, bias=True)
                  (_hyper_bias): Linear(in_features=1, out_features=32, bias=False)
                )
                (1): ActNorm(32)
                (2): Softplus(beta=1, threshold=20)
                (3): ConcatLinear_v2(
                  (_layer): Linear(in_features=32, out_features=32, bias=True)
                  (_hyper_bias): Linear(in_features=1, out_features=32, bias=False)
                )
              )
            )
            (update_net): GRUCell(3, 32)
          )
        )
      )
      (ode_solver): TimeVariableODE(
        method=dopri5, atol=0.0001, rtol=0.0001, energy=0.0001
        (func): IntensityODEFunc(
          (dstate_fn): HiddenStateODEFuncList(
            (odefuncs): ModuleList(
              (0): GRUHiddenStateODEFunc(
                (dstate_net): SequentialDiffEq(
                  (layers): ModuleList(
                    (0): ConcatLinear_v2(
                      (_layer): Linear(in_features=32, out_features=32, bias=True)
                      (_hyper_bias): Linear(in_features=1, out_features=32, bias=False)
                    )
                    (1): ActNorm(32)
                    (2): Softplus(beta=1, threshold=20)
                    (3): ConcatLinear_v2(
                      (_layer): Linear(in_features=32, out_features=32, bias=True)
                      (_hyper_bias): Linear(in_features=1, out_features=32, bias=False)
                    )
                  )
                )
                (update_net): GRUCell(3, 32)
              )
            )
          )
          (intensity_fn): Sequential(
            (0): Linear(in_features=16, out_features=64, bias=True)
            (1): Softplus(beta=1, threshold=20)
            (2): Linear(in_features=64, out_features=1, bias=True)
          )
        )
      )
    )
    (spatial_model): SelfAttentiveCNF(
      (t_embedding): EventTimeEncoding()
      (odefunc): SelfAttentiveODEFunc(
        (embedding): SequentialDiffEq(
          (layers): ModuleList(
            (0): ConcatLinear_v2(
              (_layer): Linear(in_features=83, out_features=64, bias=True)
              (_hyper_bias): Linear(in_features=1, out_features=64, bias=False)
            )
            (1): TimeDependentSwish(
              (beta): Sequential(
                (0): Linear(in_features=1, out_features=64, bias=True)
                (1): Softplus(beta=1, threshold=20)
                (2): Linear(in_features=64, out_features=64, bias=True)
                (3): Softplus(beta=1, threshold=20)
              )
            )
            (2): ConcatLinear_v2(
              (_layer): Linear(in_features=64, out_features=64, bias=True)
              (_hyper_bias): Linear(in_features=1, out_features=64, bias=False)
            )
            (3): TimeDependentSwish(
              (beta): Sequential(
                (0): Linear(in_features=1, out_features=64, bias=True)
                (1): Softplus(beta=1, threshold=20)
                (2): Linear(in_features=64, out_features=64, bias=True)
                (3): Softplus(beta=1, threshold=20)
              )
            )
            (4): ConcatLinear_v2(
              (_layer): Linear(in_features=64, out_features=64, bias=True)
              (_hyper_bias): Linear(in_features=1, out_features=64, bias=False)
            )
          )
        )
        (self_attns): ModuleList(
          (0): L2MultiheadAttention(
            (out_proj): Linear(in_features=64, out_features=64, bias=True)
          )
          (1): L2MultiheadAttention(
            (out_proj): Linear(in_features=64, out_features=64, bias=True)
          )
        )
        (attn_actnorms): ModuleList(
          (0): ActNorm(64)
          (1): ActNorm(64)
        )
        (fcs): ModuleList(
          (0): Sequential(
            (0): Linear(in_features=64, out_features=256, bias=True)
            (1): Softplus(beta=1, threshold=20)
            (2): Linear(in_features=256, out_features=64, bias=True)
          )
          (1): Sequential(
            (0): Linear(in_features=64, out_features=256, bias=True)
            (1): Softplus(beta=1, threshold=20)
            (2): Linear(in_features=256, out_features=64, bias=True)
          )
        )
        (fc_actnorms): ModuleList(
          (0): ActNorm(64)
          (1): ActNorm(64)
        )
        (attn_gates): ModuleList(
          (0): TanhGate()
          (1): TanhGate()
        )
        (fc_gates): ModuleList(
          (0): TanhGate()
          (1): TanhGate()
        )
        (output_proj): SequentialDiffEq(
          (layers): ModuleList(
            (0): ConcatLinear_v2(
              (_layer): Linear(in_features=64, out_features=64, bias=True)
              (_hyper_bias): Linear(in_features=1, out_features=64, bias=False)
            )
            (1): TimeDependentSwish(
              (beta): Sequential(
                (0): Linear(in_features=1, out_features=64, bias=True)
                (1): Softplus(beta=1, threshold=20)
                (2): Linear(in_features=64, out_features=64, bias=True)
                (3): Softplus(beta=1, threshold=20)
              )
            )
            (2): ConcatLinear_v2(
              (_layer): Linear(in_features=64, out_features=3, bias=True)
              (_hyper_bias): Linear(in_features=1, out_features=3, bias=False)
            )
          )
        )
      )
      (cnf): TimeVariableCNF(
        method=dopri5, tol=0.0001, energy=0.0001, jacnorm=0.0001
        (func): SelfAttentiveODEFunc(
          (embedding): SequentialDiffEq(
            (layers): ModuleList(
              (0): ConcatLinear_v2(
                (_layer): Linear(in_features=83, out_features=64, bias=True)
                (_hyper_bias): Linear(in_features=1, out_features=64, bias=False)
              )
              (1): TimeDependentSwish(
                (beta): Sequential(
                  (0): Linear(in_features=1, out_features=64, bias=True)
                  (1): Softplus(beta=1, threshold=20)
                  (2): Linear(in_features=64, out_features=64, bias=True)
                  (3): Softplus(beta=1, threshold=20)
                )
              )
              (2): ConcatLinear_v2(
                (_layer): Linear(in_features=64, out_features=64, bias=True)
                (_hyper_bias): Linear(in_features=1, out_features=64, bias=False)
              )
              (3): TimeDependentSwish(
                (beta): Sequential(
                  (0): Linear(in_features=1, out_features=64, bias=True)
                  (1): Softplus(beta=1, threshold=20)
                  (2): Linear(in_features=64, out_features=64, bias=True)
                  (3): Softplus(beta=1, threshold=20)
                )
              )
              (4): ConcatLinear_v2(
                (_layer): Linear(in_features=64, out_features=64, bias=True)
                (_hyper_bias): Linear(in_features=1, out_features=64, bias=False)
              )
            )
          )
          (self_attns): ModuleList(
            (0): L2MultiheadAttention(
              (out_proj): Linear(in_features=64, out_features=64, bias=True)
            )
            (1): L2MultiheadAttention(
              (out_proj): Linear(in_features=64, out_features=64, bias=True)
            )
          )
          (attn_actnorms): ModuleList(
            (0): ActNorm(64)
            (1): ActNorm(64)
          )
          (fcs): ModuleList(
            (0): Sequential(
              (0): Linear(in_features=64, out_features=256, bias=True)
              (1): Softplus(beta=1, threshold=20)
              (2): Linear(in_features=256, out_features=64, bias=True)
            )
            (1): Sequential(
              (0): Linear(in_features=64, out_features=256, bias=True)
              (1): Softplus(beta=1, threshold=20)
              (2): Linear(in_features=256, out_features=64, bias=True)
            )
          )
          (fc_actnorms): ModuleList(
            (0): ActNorm(64)
            (1): ActNorm(64)
          )
          (attn_gates): ModuleList(
            (0): TanhGate()
            (1): TanhGate()
          )
          (fc_gates): ModuleList(
            (0): TanhGate()
            (1): TanhGate()
          )
          (output_proj): SequentialDiffEq(
            (layers): ModuleList(
              (0): ConcatLinear_v2(
                (_layer): Linear(in_features=64, out_features=64, bias=True)
                (_hyper_bias): Linear(in_features=1, out_features=64, bias=False)
              )
              (1): TimeDependentSwish(
                (beta): Sequential(
                  (0): Linear(in_features=1, out_features=64, bias=True)
                  (1): Softplus(beta=1, threshold=20)
                  (2): Linear(in_features=64, out_features=64, bias=True)
                  (3): Softplus(beta=1, threshold=20)
                )
              )
              (2): ConcatLinear_v2(
                (_layer): Linear(in_features=64, out_features=3, bias=True)
                (_hyper_bias): Linear(in_features=1, out_features=3, bias=False)
              )
            )
          )
        )
      )
      (base_cnf): TimeVariableCNF(
        method=dopri5, tol=1e-06, energy=0.0001, jacnorm=0.0001
        (func): SequentialDiffEq(
          (layers): ModuleList(
            (0): ConcatLinear_v2(
              (_layer): Linear(in_features=3, out_features=64, bias=True)
              (_hyper_bias): Linear(in_features=1, out_features=64, bias=False)
            )
            (1): TimeDependentSwish(
              (beta): Sequential(
                (0): Linear(in_features=1, out_features=64, bias=True)
                (1): Softplus(beta=1, threshold=20)
                (2): Linear(in_features=64, out_features=64, bias=True)
                (3): Softplus(beta=1, threshold=20)
              )
            )
            (2): ConcatLinear_v2(
              (_layer): Linear(in_features=64, out_features=64, bias=True)
              (_hyper_bias): Linear(in_features=1, out_features=64, bias=False)
            )
            (3): TimeDependentSwish(
              (beta): Sequential(
                (0): Linear(in_features=1, out_features=64, bias=True)
                (1): Softplus(beta=1, threshold=20)
                (2): Linear(in_features=64, out_features=64, bias=True)
                (3): Softplus(beta=1, threshold=20)
              )
            )
            (4): ConcatLinear_v2(
              (_layer): Linear(in_features=64, out_features=64, bias=True)
              (_hyper_bias): Linear(in_features=1, out_features=64, bias=False)
            )
            (5): TimeDependentSwish(
              (beta): Sequential(
                (0): Linear(in_features=1, out_features=64, bias=True)
                (1): Softplus(beta=1, threshold=20)
                (2): Linear(in_features=64, out_features=64, bias=True)
                (3): Softplus(beta=1, threshold=20)
              )
            )
            (6): ConcatLinear_v2(
              (_layer): Linear(in_features=64, out_features=3, bias=True)
              (_hyper_bias): Linear(in_features=1, out_features=3, bias=False)
            )
          )
        )
      )
      (base_dist_params): Sequential(
        (0): Linear(in_features=80, out_features=128, bias=True)
        (1): ReLU(inplace=True)
        (2): Linear(in_features=128, out_features=6, bias=True)
      )
    )
  )
)
2023-11-18 01:19:39,706 - Iter 0 | Epoch 0 | LR 0.00100 | Time 9.5 | Temporal -0.4805(-0.4805) | Spatial -4.2750(-4.2750) | GradNorm 135.68(135.68) | NFE 2596 | Mem 2479.94 MB
2023-11-18 01:20:10,526 - [Test] Iter 0 | Val Temporal -0.8040 | Val Spatial -4.4503 | Test Temporal -0.6376 | Test Spatial -4.2863
2023-11-18 01:21:37,100 - Iter 10 | Epoch 0 | LR 0.00100 | Time 86.5 | Temporal 0.4628(-0.4491) | Spatial -4.3597(-4.2867) | GradNorm 45.02(123.42) | NFE 4272 | Mem 2484.49 MB
…
