…
2023-12-01 10:16:10,420 - Found 1 CUDA devices.
2023-12-01 10:16:10,421 - NVIDIA GeForce RTX 2080 Ti 	 Memory: 10.75GB
2023-12-01 10:16:14,132 - 950 training examples, 51 val examples, 50 test examples
2023-12-01 10:16:14,677 - DistributedDataParallel(
  (module): SelfAttentiveCNFSpatiotemporalModel(
    (temporal_model): NeuralPointProcess(
      (hidden_state_dynamics): HiddenStateODEFuncList(
        (odefuncs): ModuleList(
          (0): GRUHiddenStateODEFunc(
            (dstate_net): SequentialDiffEq(
              (layers): ModuleList(
                (0): ConcatLinear_v2(
                  (_layer): Linear(in_features=32, out_features=32, bias=True)
                  (_hyper_bias): Linear(in_features=1, out_features=32, bias=False)
                )
                (1): ActNorm(32)
                (2): Softplus(beta=1, threshold=20)
                (3): ConcatLinear_v2(
                  (_layer): Linear(in_features=32, out_features=32, bias=True)
                  (_hyper_bias): Linear(in_features=1, out_features=32, bias=False)
                )
              )
            )
            (update_net): GRUCell(2, 32)
          )
        )
      )
      (ode_solver): TimeVariableODE(
        method=dopri5, atol=0.0001, rtol=0.0001, energy=0.0001
        (func): IntensityODEFunc(
          (dstate_fn): HiddenStateODEFuncList(
            (odefuncs): ModuleList(
              (0): GRUHiddenStateODEFunc(
                (dstate_net): SequentialDiffEq(
                  (layers): ModuleList(
                    (0): ConcatLinear_v2(
                      (_layer): Linear(in_features=32, out_features=32, bias=True)
                      (_hyper_bias): Linear(in_features=1, out_features=32, bias=False)
                    )
                    (1): ActNorm(32)
                    (2): Softplus(beta=1, threshold=20)
                    (3): ConcatLinear_v2(
                      (_layer): Linear(in_features=32, out_features=32, bias=True)
                      (_hyper_bias): Linear(in_features=1, out_features=32, bias=False)
                    )
                  )
                )
                (update_net): GRUCell(2, 32)
              )
            )
          )
          (intensity_fn): Sequential(
            (0): Linear(in_features=16, out_features=64, bias=True)
            (1): Softplus(beta=1, threshold=20)
            (2): Linear(in_features=64, out_features=1, bias=True)
          )
        )
      )
    )
    (spatial_model): SelfAttentiveCNF(
      (t_embedding): EventTimeEncoding()
      (odefunc): SelfAttentiveODEFunc(
        (embedding): SequentialDiffEq(
          (layers): ModuleList(
            (0): ConcatLinear_v2(
              (_layer): Linear(in_features=82, out_features=64, bias=True)
              (_hyper_bias): Linear(in_features=1, out_features=64, bias=False)
            )
            (1): TimeDependentSwish(
              (beta): Sequential(
                (0): Linear(in_features=1, out_features=64, bias=True)
                (1): Softplus(beta=1, threshold=20)
                (2): Linear(in_features=64, out_features=64, bias=True)
                (3): Softplus(beta=1, threshold=20)
              )
            )
            (2): ConcatLinear_v2(
              (_layer): Linear(in_features=64, out_features=64, bias=True)
              (_hyper_bias): Linear(in_features=1, out_features=64, bias=False)
            )
            (3): TimeDependentSwish(
              (beta): Sequential(
                (0): Linear(in_features=1, out_features=64, bias=True)
                (1): Softplus(beta=1, threshold=20)
                (2): Linear(in_features=64, out_features=64, bias=True)
                (3): Softplus(beta=1, threshold=20)
              )
            )
            (4): ConcatLinear_v2(
              (_layer): Linear(in_features=64, out_features=64, bias=True)
              (_hyper_bias): Linear(in_features=1, out_features=64, bias=False)
            )
          )
        )
        (self_attns): ModuleList(
          (0): L2MultiheadAttention(
            (out_proj): Linear(in_features=64, out_features=64, bias=True)
          )
          (1): L2MultiheadAttention(
            (out_proj): Linear(in_features=64, out_features=64, bias=True)
          )
        )
        (attn_actnorms): ModuleList(
          (0): ActNorm(64)
          (1): ActNorm(64)
        )
        (fcs): ModuleList(
          (0): Sequential(
            (0): Linear(in_features=64, out_features=256, bias=True)
            (1): Softplus(beta=1, threshold=20)
            (2): Linear(in_features=256, out_features=64, bias=True)
          )
          (1): Sequential(
            (0): Linear(in_features=64, out_features=256, bias=True)
            (1): Softplus(beta=1, threshold=20)
            (2): Linear(in_features=256, out_features=64, bias=True)
          )
        )
        (fc_actnorms): ModuleList(
          (0): ActNorm(64)
          (1): ActNorm(64)
        )
        (attn_gates): ModuleList(
          (0): TanhGate()
          (1): TanhGate()
        )
        (fc_gates): ModuleList(
          (0): TanhGate()
          (1): TanhGate()
        )
        (output_proj): SequentialDiffEq(
          (layers): ModuleList(
            (0): ConcatLinear_v2(
              (_layer): Linear(in_features=64, out_features=64, bias=True)
              (_hyper_bias): Linear(in_features=1, out_features=64, bias=False)
            )
            (1): TimeDependentSwish(
              (beta): Sequential(
                (0): Linear(in_features=1, out_features=64, bias=True)
                (1): Softplus(beta=1, threshold=20)
                (2): Linear(in_features=64, out_features=64, bias=True)
                (3): Softplus(beta=1, threshold=20)
              )
            )
            (2): ConcatLinear_v2(
              (_layer): Linear(in_features=64, out_features=2, bias=True)
              (_hyper_bias): Linear(in_features=1, out_features=2, bias=False)
            )
          )
        )
      )
      (cnf): TimeVariableCNF(
        method=dopri5, tol=0.0001, energy=0.0001, jacnorm=0.0001
        (func): SelfAttentiveODEFunc(
          (embedding): SequentialDiffEq(
            (layers): ModuleList(
              (0): ConcatLinear_v2(
                (_layer): Linear(in_features=82, out_features=64, bias=True)
                (_hyper_bias): Linear(in_features=1, out_features=64, bias=False)
              )
              (1): TimeDependentSwish(
                (beta): Sequential(
                  (0): Linear(in_features=1, out_features=64, bias=True)
                  (1): Softplus(beta=1, threshold=20)
                  (2): Linear(in_features=64, out_features=64, bias=True)
                  (3): Softplus(beta=1, threshold=20)
                )
              )
              (2): ConcatLinear_v2(
                (_layer): Linear(in_features=64, out_features=64, bias=True)
                (_hyper_bias): Linear(in_features=1, out_features=64, bias=False)
              )
              (3): TimeDependentSwish(
                (beta): Sequential(
                  (0): Linear(in_features=1, out_features=64, bias=True)
                  (1): Softplus(beta=1, threshold=20)
                  (2): Linear(in_features=64, out_features=64, bias=True)
                  (3): Softplus(beta=1, threshold=20)
                )
              )
              (4): ConcatLinear_v2(
                (_layer): Linear(in_features=64, out_features=64, bias=True)
                (_hyper_bias): Linear(in_features=1, out_features=64, bias=False)
              )
            )
          )
          (self_attns): ModuleList(
            (0): L2MultiheadAttention(
              (out_proj): Linear(in_features=64, out_features=64, bias=True)
            )
            (1): L2MultiheadAttention(
              (out_proj): Linear(in_features=64, out_features=64, bias=True)
            )
          )
          (attn_actnorms): ModuleList(
            (0): ActNorm(64)
            (1): ActNorm(64)
          )
          (fcs): ModuleList(
            (0): Sequential(
              (0): Linear(in_features=64, out_features=256, bias=True)
              (1): Softplus(beta=1, threshold=20)
              (2): Linear(in_features=256, out_features=64, bias=True)
            )
            (1): Sequential(
              (0): Linear(in_features=64, out_features=256, bias=True)
              (1): Softplus(beta=1, threshold=20)
              (2): Linear(in_features=256, out_features=64, bias=True)
            )
          )
          (fc_actnorms): ModuleList(
            (0): ActNorm(64)
            (1): ActNorm(64)
          )
          (attn_gates): ModuleList(
            (0): TanhGate()
            (1): TanhGate()
          )
          (fc_gates): ModuleList(
            (0): TanhGate()
            (1): TanhGate()
          )
          (output_proj): SequentialDiffEq(
            (layers): ModuleList(
              (0): ConcatLinear_v2(
                (_layer): Linear(in_features=64, out_features=64, bias=True)
                (_hyper_bias): Linear(in_features=1, out_features=64, bias=False)
              )
              (1): TimeDependentSwish(
                (beta): Sequential(
                  (0): Linear(in_features=1, out_features=64, bias=True)
                  (1): Softplus(beta=1, threshold=20)
                  (2): Linear(in_features=64, out_features=64, bias=True)
                  (3): Softplus(beta=1, threshold=20)
                )
              )
              (2): ConcatLinear_v2(
                (_layer): Linear(in_features=64, out_features=2, bias=True)
                (_hyper_bias): Linear(in_features=1, out_features=2, bias=False)
              )
            )
          )
        )
      )
      (base_cnf): TimeVariableCNF(
        method=dopri5, tol=1e-06, energy=0.0001, jacnorm=0.0001
        (func): SequentialDiffEq(
          (layers): ModuleList(
            (0): ConcatLinear_v2(
              (_layer): Linear(in_features=2, out_features=64, bias=True)
              (_hyper_bias): Linear(in_features=1, out_features=64, bias=False)
            )
            (1): TimeDependentSwish(
              (beta): Sequential(
                (0): Linear(in_features=1, out_features=64, bias=True)
                (1): Softplus(beta=1, threshold=20)
                (2): Linear(in_features=64, out_features=64, bias=True)
                (3): Softplus(beta=1, threshold=20)
              )
            )
            (2): ConcatLinear_v2(
              (_layer): Linear(in_features=64, out_features=64, bias=True)
              (_hyper_bias): Linear(in_features=1, out_features=64, bias=False)
            )
            (3): TimeDependentSwish(
              (beta): Sequential(
                (0): Linear(in_features=1, out_features=64, bias=True)
                (1): Softplus(beta=1, threshold=20)
                (2): Linear(in_features=64, out_features=64, bias=True)
                (3): Softplus(beta=1, threshold=20)
              )
            )
            (4): ConcatLinear_v2(
              (_layer): Linear(in_features=64, out_features=64, bias=True)
              (_hyper_bias): Linear(in_features=1, out_features=64, bias=False)
            )
            (5): TimeDependentSwish(
              (beta): Sequential(
                (0): Linear(in_features=1, out_features=64, bias=True)
                (1): Softplus(beta=1, threshold=20)
                (2): Linear(in_features=64, out_features=64, bias=True)
                (3): Softplus(beta=1, threshold=20)
              )
            )
            (6): ConcatLinear_v2(
              (_layer): Linear(in_features=64, out_features=2, bias=True)
              (_hyper_bias): Linear(in_features=1, out_features=2, bias=False)
            )
          )
        )
      )
      (base_dist_params): Sequential(
        (0): Linear(in_features=80, out_features=128, bias=True)
        (1): ReLU(inplace=True)
        (2): Linear(in_features=128, out_features=4, bias=True)
      )
    )
  )
)
2023-11-29 00:15:15,779 - Iter 0 | Epoch 0 | LR 0.00100 | Time 11.5 | Temporal -1.8295(-1.8295) | Spatial -2.8532(-2.8532) | GradNorm 136.02(136.02) | NFE 2902 | Mem 2445.46 MB
2023-11-29 00:15:52,312 - [Test] Iter 0 | Val Temporal -2.3721 | Val Spatial -2.9402 | Test Temporal -2.0442 | Test Spatial -2.8127
2023-11-29 00:17:39,556 - Iter 10 | Epoch 0 | LR 0.00100 | Time 107.2 | Temporal 0.5634(-1.7009) | Spatial -2.7566(-2.8642) | GradNorm 43.15(122.46) | NFE 4422 | Mem 2451.09 MB
…
